models/26.01.2025_09.29_best_model.pth (torch, 182480 bytes, 10 tensors)

fc1.weight f4 [256, 4]
00000000: 0f5f d2bc cb51 e73e 4076 383e d830 61be
00000010: 5e8f eebe d803 acbe 0b43 463e 8df2 723e
00000020: 3b17 b83e bfdb ccbe 5b22 eebd 336a c13e
00000030: dec3 eebe e17e e9bd 401a f13e c51c cabe
00000040: 8edf 653e 3bc4 f23d e2a8 c53e ab35 a9bd
00000050: e1c0 febd eb23 ae3e ed4f 56be da3d 203e
00000060: 717b 84be ed25 99bd f2ae 6e3e f649 e33e
00000070: bae4 b2be 6371 e0be b113 a33c 0a7b e33d
00000080: 08b1 bd3d dfa0 e53e 5287 85be 7bd0 9c3e
00000090: 4f29 e7be 8992 b3be 92dd 90be 47bd 333d
000000a0: 6857 353e 4404 bcbd ccda 273e 2c36 353e
000000b0: 49c5 d6be fa94 93be 9203 12be 7bd5 473e
000000c0: 589d 5eb9 9ea2 f83e 65d2 19be 293e 943e
000000d0: 4f40 b0bd c377 2e3d 1b75 d6be 8da7 f1be
000000e0: 99ec 1bbe 10b6 9c3e 5ec6 adbd f47f efbe
000000f0: a02b 98bb 0577 d1be c8a6 54bd 7d9f e83d
00000100: 9cb3 d8be acb0 febc d5f7 ab3e 2cdb b5be
00000110: 1ac8 cebe dc3c ddbe 6522 913d 7607 17be
00000120: 2c4e fdbe 59f7 ca3d f5ca b33e 0f8a 2dbe
00000130: 841e 383e 0781 7f3e a040 ba3e 1b17 bdbe
00000140: 0b03 fe3e 4ea1 74be 08a1 e2be e6e7 d1be
00000150: ade5 4cbe aa34 b43e ec1e 6a3e 483f c73e
00000160: f81a eabe 61d8 f73e d264 6abe 6e94 eebe
00000170: 9c04 5abe fc44 9dbe d5bc 81be fe17 64be
00000180: 7d95 5f3e 53e2 12be b251 9bbe b267 173e
00000190: 3fac 643e 58e6 06be c19c 0c3d cfed 8f3e
000001a0: 9524 823b 972b 1b3e ba80 8f3e 0077 02bf
000001b0: 898a a33e 41ca ee3d 0b23 353e 2a97 c2be
000001c0: b2f0 f1be 4f25 dcbe 92e0 963e f203 7dbe
000001d0: ea31 04bf b686 eb3e 9e85 e13e a904 08be
000001e0: d4d1 8d3d b0c1 62bd 84d8 733e e958 9cbd
000001f0: 57a9 74be e46b 853d a4d7 d0be 02f8 ef3d
00000200: a7b5 cebe 53dc 813e 1e5d c0be 0475 973e
00000210: e5c7 f9bd 7f02 7e3e 3d90 d43b acaf 81be
00000220: 98e8 cbbe 66cc 54be 8ac5 34be e32e 8d3d
00000230: 387c 81be 19aa 363d ece4 a5be 30fe 0cbd
00000240: 1182 4abe b448 c43e 7e76 a9bd 9d87 6e3d
00000250: 8769 c8be 6f67 91bd 7371 b83e 5aa8 903e
00000260: d9e3 5e3e bd54 6abe 9717 b33d 50ab dabd
00000270: dddf adbd c5eb 9b3e b4e1 f4be 075c 6abe
00000280: b7f3 bd3e 20c6 06bd 6b0c aebe 8d20 ae3d
00000290: 8c6b 0c3e 5637 18be 8cdf 0cbd aed1 4fbe
000002a0: 8426 a73e 7adb 83be bbf3 df3b 7cdf dcbe
000002b0: 7297 00bf 224f cd3d e8d8 05bf 507f 90be
000002c0: 61db 283e bb9f c23d b7b4 3bbe 18ba d6bc
000002d0: bb22 61be 4c22 8cbe d4aa c4bd 5367 90be
000002e0: 077d 9ebe 7f02 9a3e 7128 fabe 0cfd b23e
000002f0: 85a1 63be 685a de3e 90d7 423e 36e9 853e
00000300: dfcc bb3e 8e84 873e 59e9 f8be 5858 d2be
00000310: 5379 03bf 9937 453d 8842 a63d 4445 94be
00000320: 72e0 fd3e d3e6 aebe 556b 243c a52c d73e
00000330: d696 4ebe 6fe2 0a3e 7ca0 cdbe 4dd7 9d3e
00000340: 2717 a5be 2d4a 74bb 9536 acbe 9e8b d7be
00000350: 3321 d43d f54f b43e 1add f5be 8c46 0e3e
00000360: 67b7 1fbe aabe 1abe 7ad5 f83e f7ef 5fbd
00000370: e448 593d d3c1 c63e 31f9 fb3e 9803 1cbe
00000380: 043e c6be 5abf 223e 98d5 c63d 7945 88be
00000390: 2eec 95be 8e2c 82be 45ad f5bd 69ce 933e
000003a0: dcfd e33e 14fa 41bc cf8c abbe 45cf 083e
000003b0: b1c8 f23e 301c 9a3c 0506 fdbe ed84 813e
000003c0: b443 e4be 18f0 ba3d 707d 613e 9fff 2ebd
000003d0: dbda b33e 09d6 c33d c615 a8be bc4a 02bf
000003e0: 8219 bb3e 8426 fc3e 6104 173e f33f f4be
000003f0: 5b65 d73e 5b88 8cbe 371f e1be c1f0 4abc
-0.025680093 0.4517959 0.18013859 -0.21991289 -0.46593755 -0.33596683 0.19361512 0.23725338
0.35955223 -0.40011403 -0.116276465 0.37776336 -0.4663381 -0.11401153 0.4709034 -0.39475074
0.2244856 0.11853834 0.3860541 -0.082621895 -0.124391325 0.34011778 -0.20928927 0.15648594
-0.25875428 -0.07477937 0.23308924 0.44392365 -0.3494013 -0.43836507 0.01990685 0.11107452
0.09262282 0.44849297 -0.26079804 0.30627808 -0.45148703 -0.35072735 -0.28294045 0.04388168
0.17709124 -0.09180501 0.16392058 0.17696446 -0.41947392 -0.28824598 -0.14259174 0.1951503
-0.00021230185 0.48561567 -0.15021665 0.28953674 -0.08606016 0.042594682 -0.4188622 -0.47198144
-0.15226974 0.30607653 -0.08485101 -0.46777308 -0.0046438724 -0.40911117 -0.051916867 0.11358545
-0.4232453 -0.031090103 0.33587518 -0.35518777 -0.4038704 -0.43210495 0.07086638 -0.1474894
-0.49473703 0.09910459 0.3511578 -0.16947196 0.17980391 0.24951564 0.3637743 -0.3693169
0.49611697 -0.23889658 -0.44263482 -0.40997237 -0.2000949 0.3519643 0.22863358 0.38915467
-0.457237 0.48407272 -0.22890022 -0.46597618 -0.21290821 -0.30716693 -0.2533938 -0.22274777
0.21834369 -0.14344148 -0.30335766 0.1478565 0.22331332 -0.13173807 0.03432918 0.2811112
0.003971646 0.15153347 0.28027898 -0.5096283 0.3194163 0.116596706 0.17689149 -0.38005954
-0.47253948 -0.42997214 0.2946821 -0.24708536 -0.5163866 0.46001214 0.44047254 -0.13283028
0.06924787 -0.055360496 0.23813063 -0.07634146 -0.23892723 0.06514719 -0.4078952 0.117172256
-0.40372965 0.25363407 -0.37571043 0.29581463 -0.1219633 0.2480564 0.006486921 -0.2532934
-0.39825892 -0.20781097 -0.1765348 0.068937086 -0.25290084 0.04459581 -0.32401216 -0.0344221
-0.19776179 0.38336718 -0.08274554 0.0582348 -0.3914301 -0.070998065 0.36024055 0.28253442
0.21766604 -0.22883888 0.08744734 -0.106772065 -0.08489964 0.30453315 -0.47828448 -0.22886668
0.37100002 -0.03290379 -0.3399385 0.08502302 0.13712901 -0.14864859 -0.03439288 -0.2029483
0.32646573 -0.25753385 0.006834475 -0.43139255 -0.5023109 0.10024859 -0.522841 -0.28222132
0.16489936 0.095031224 -0.18330656 -0.026211783 -0.21985905 -0.27369916 -0.096028954 -0.2820383
-0.30954763 0.3008003 -0.4885898 0.34958684 -0.22229584 0.4342835 0.19027543 0.26154488
0.36679742 0.2646832 -0.4861553 -0.41083026 -0.51357 0.048148725 0.081181586 -0.28959095
0.495853 -0.3416048 0.010035356 0.4202625 -0.20174727 0.1356294 -0.40161502 0.30828324
-0.32244226 -0.0037275658 -0.33635393 -0.42098707 0.10357895 0.35217252 -0.4802025 0.13894099
-0.15597306 -0.15111795 0.4860037 -0.054672208 0.05304803 0.3881975 0.49213555 -0.15235746
-0.3871919 0.15893307 0.097087085 -0.26615503 -0.29281753 -0.25424618 -0.11995939 0.28868416
0.44529617 -0.011839408 -0.33505866 0.13360317 0.4741874 0.018812269 -0.49418655 0.25296727
-0.44582903 0.091278255 0.22020507 -0.042724248 0.3512791 0.09562308 -0.32829112 -0.50895286
0.36542898 0.49248135 0.14747764 -0.4770504 0.42069516 -0.2744778 -0.43969128 -0.012386502

fc1.bias f4 [256]
00000000: e45d 493e bd58 64be 4b56 d03d aac4 ed3e
00000010: ac5d cf3e 97d8 fe3e 2b13 823e cf3c a8bd
00000020: a0fd abbb 3244 c7be 9d83 71bc d5d0 f93e
00000030: ab37 d1be 9298 a43e 6098 a83e ba62 2cbe
00000040: e6e5 81be d88e a8bd d96f 4bbd cf33 9fbe
00000050: efe5 8bbe 68d6 4dbd 68da 34be 81f4 f3be
00000060: 2114 7e3e 8a68 1cbe 21af c2bd ea96 7cbe
00000070: 589d 57bd efb7 e2bd 980c 5cbe 8896 48be
00000080: 9e54 673e 852b 183e ae1d db3d d1f9 a63e
00000090: c5e9 b53c a882 c6be 6705 9e3e eba1 453e
000000a0: 0621 99bd 10ad 183d b055 ca3e dafa 7b3e
000000b0: a25c 423e c522 04be 2d0a 543e deae 8a3e
000000c0: ba8e babe 932d b93d 96b6 cfbe 24b6 b0be
000000d0: abcc 6d3e 63fd ca3e 58bb f5bd c0bf dc3e
000000e0: a102 cd3e e430 a53e 8f04 fabe fcbc b0be
000000f0: 1f50 4a3e db66 d33e fc99 763d 23c9 e9be
00000100: fbf1 8f3e 07f3 96be b744 c2be cb44 65be
00000110: 730e 52be 2c0d 0a3d a23c a7bb 0065 b7be
00000120: b04b 8f3e df26 b43e 46e2 89be c742 023e
00000130: adae 8d3e 19a3 e03e 714f 1b3e 6513 95be
00000140: f12b ccbd dd23 4abe a52f f43e 393c 8a3e
00000150: c658 a2bd 0a6d 11be bf9a d8be 3439 b33e
00000160: 61c9 34be ef0e bc3e 4e76 3fbd 3e65 493e
00000170: f828 bd3d 00d4 d8be 5001 013f 309d 5d3e
00000180: fdf0 533e 2611 3d3e b58f b3bd 5c03 b93e
00000190: a7a2 ae3e d24b 973d 8efb b5bb f98e 8dbe
000001a0: d9b7 bc3e ca87 a63e de15 2abd 5d5b d03e
000001b0: 9bfc 423e 653a c0be 94c1 88bc a91d fa3e
000001c0: df79 adbe 2e30 9b3c ab81 7a3e 9132 1c3c
000001d0: b9e4 073f aeb3 d53e 1c5d 6f3e 751c b93e
000001e0: 74c2 503e 90b4 e73e fd38 203d 5b7b 893d
000001f0: c4ca 813c 398e 0d3e cd0e 873e 90d2 f83e
00000200: 7c5f c73e 98d3 d5be 0f75 a9be fc6b 503e
00000210: 91a9 28be 8e0b 053f 3ba1 92be 3ff6 09be
00000220: 6c9e d93e e0ea 01bf d438 aa3e 43f0 8e3e
00000230: ac51 1a3d 1d1c 8cbe f050 0c3e b6b1 9c3e
00000240: b40e 9a3e 0b10 0f3e 0156 bf3e 14ff c4bd
00000250: 2d45 c33e 9ae4 d63e b60d e1be 3c9c acbe
00000260: 9e69 d0be 72d2 0cbe 0258 df3d 7c10 04be
00000270: 0488 bbbe d1e0 d4be 96c1 543e b891 f2be
00000280: ce2c d73d db9b da3e 0baa 8e3e 5e42 cfbd
00000290: ceba d7be 36ba 043e 0580 0f3e f45a aa3d
000002a0: bee5 1dbe 6348 d43e 28e3 e8be 84b4 763c
000002b0: ae31 01bd f36d 66be 590b 18bd 68ce 56be
000002c0: fa42 cd3e 2e32 a3be 1c3a c43e c948 37be
000002d0: 0b51 aebd 775a f63e a6ee 573e 8290 f73d
000002e0: 41ed f33e 910a de3e 4c0e c7be 65f8 d4be
000002f0: c662 82be bff1 c53e 8275 a3be 784c 583e
00000300: 2bc1 d23e c7a6 20be 7e4c e5bd 06e5 653e
00000310: 4b54 18bd 1d47 ec3e bad3 023d 2372 46be
00000320: 830f 2f3e b4c0 61be 614a d7be 75a0 c83e
00000330: fcfc f1be 3c3f 5bbe 27b3 5cbe a6d3 6ebd
00000340: 8d0d 58be a407 773e 6dda afbe bebb b63e
00000350: 365a fcbe 86c8 73bd e891 1bbe a600 a03e
00000360: 4104 243d 0f42 a93d 839d 9d3e 86d5 2d3e
00000370: 2924 1fbe 82c4 80bb da82 a9be 28a8 9d3e
00000380: 8e97 133e 5b21 803d 2b24 70be f4b5 7abe
00000390: 7d36 7bbe 354f 543e 8284 8abe 878a c8be
000003a0: 962f c73c 8cb3 ccbe e25c 063d b66e 503e
000003b0: 6fa7 4d3e a2e1 3a3e 546b 8cbc 496c fb3e
000003c0: fa57 883c 172a 2c3e 57e8 0c3e 0bc5 883c
000003d0: bc5e 11be 4dc7 8a3e b385 a6be 14ea 8ebe
000003e0: d699 f43e fdc9 a63e 2720 0e3e 181f 58bd
000003f0: 0c9a cdbe 5d3e 8d3d 6258 ccbd d26b bc39
0.19664723 -0.22299476 0.10172709 0.46439105 0.40501153 0.4977462 0.2540525 -0.08214723
-0.0052487403 -0.38919216 -0.014740852 0.4879214 -0.40862784 0.32147652 0.32928753 -0.16834536
-0.2537071 -0.0823037 -0.049667213 -0.31094214 -0.27323863 -0.0502533 -0.1766144 -0.4764748
0.24812366 -0.15274253 -0.095060594 -0.24666944 -0.05264029 -0.11070239 -0.21489179 -0.19588673
0.22590873 0.14860351 0.1069902 0.3261247 0.022206197 -0.38771558 0.30863497 0.19300048
-0.07477002 0.03727442 0.395185 0.24607411 0.18980649 -0.12903889 0.20707007 0.27086538
-0.36437017 0.09041896 -0.4056899 -0.34513962 0.23222606 0.39646444 -0.119986236 0.43115044
0.40041068 0.32263863 -0.48831603 -0.34519184 0.19757126 0.4128941 0.060205445 -0.45661268
0.28114304 -0.2948229 -0.3794305 -0.22389524 -0.20513324 0.033703968 -0.0051036635 -0.35819244
0.27987432 0.35185906 -0.26930445 0.12720786 0.2767233 0.43874434 0.15167023 -0.2911636
-0.09969319 -0.19740243 0.476926 0.2699907 -0.079270884 -0.14201751 -0.42305562 0.3500458
-0.17654945 0.36730143 -0.046743684 0.19667527 0.0923633 -0.42349243 0.5039263 0.21641994
0.20697398 0.18463573 -0.08767644 0.36135375 0.3410847 0.073875085 -0.0055536693 -0.27648142
0.36859015 0.32525474 -0.04152476 0.40694705 0.19041674 -0.37544551 -0.016693868 0.48850754
-0.33882043 0.018943872 0.24463527 0.00953354 0.5308338 0.41738647 0.23375362 0.36154523
0.20386678 0.45254946 0.03911685 0.06712981 0.015843756 0.13823785 0.2637848 0.48598146
0.38940036 -0.41762996 -0.3309712 0.20353693 -0.16470934 0.51970756 -0.28638634 -0.13472842
0.4250368 -0.50749016 0.3324648 0.2791768 0.037675545 -0.273652 0.1370275 0.30604333
0.30089343 0.13970964 0.37370303 -0.09618965 0.38138714 0.41971284 -0.43955773 -0.33712947
-0.4070558 -0.13752154 0.10905458 -0.12896913 -0.3662721 -0.4157777 0.20776972 -0.473768
0.10506593 0.42697033 0.27864107 -0.101200804 -0.42134708 0.12961659 0.1401368 0.08318129
-0.15419671 0.41461477 -0.45485806 0.015057687 -0.03154152 -0.2250288 -0.037120197 -0.20977175
0.40090162 -0.31874222 0.38325584 -0.17898859 -0.085115515 0.48115894 0.21087131 0.120881096
0.47641948 0.43367437 -0.38878095 -0.4159576 -0.25465983 0.38661 -0.3192559 0.2112292
0.41163 -0.1568862 -0.1119623 0.22450647 -0.037189763 0.46148005 0.0319402 -0.19379477
0.17095761 -0.22046167 -0.42048934 0.3918492 -0.47263324 -0.21410841 -0.21552716 -0.058307312
-0.21098919 0.24124008 -0.34346333 0.3569011 -0.49287575 -0.059517406 -0.15192378 0.31250495
0.04004312 0.08264553 0.30784234 0.16975984 -0.15541138 -0.0039296756 -0.33107644 0.30792356
0.14413282 0.06256362 -0.23451297 -0.24483472 -0.24532504 0.2073334 -0.2705422 -0.39168188
0.024314683 -0.39980733 0.032803424 0.20354733 0.20083402 0.18250135 -0.017141022 0.49106053
0.016643513 0.16812931 0.13760506 0.01669552 -0.14196295 0.2710518 -0.3252388 -0.27912962
0.47773618 0.3257598 0.13879453 -0.05276403 -0.4015659 0.068966605 -0.09977795 0.00035938487

fc2.weight f4 [128, 256]
00000000: a513 393d c169 ff3b a32d 183d bc06 923d
00000010: 5623 05bd 1826 dcbc 9819 88ba fe2c 863d
00000020: a9a6 53bb 1c2e a53c 9f0b e0bb 8736 923d
00000030: 35bb 8f3c d63e ac3d bace 613d 3e7c 083d
00000040: ad97 20bd 4d88 523d 6ace ba3a 491b 9c3d
00000050: 1239 08bd bd19 503d 0f8b 553c 72c8 b5bc
00000060: cf43 99bc 7fd5 ad3d 602d 293d 7a84 1f3d
00000070: e921 27bd 2de7 ed3c 4346 2e3c be85 063d
00000080: 84ac ba3c 9ebc 9c3d 1a13 0dbd a512 8b3d
00000090: 8d3b d4ba 757a 05bd 2cc4 353d d94a 203d
000000a0: 67df b9bc 6a04 20bd 7906 1dbd 0e91 f43c
000000b0: 1432 973d 71fc 8a3d a971 9abc dbb6 053d
000000c0: 3647 fd3b 3347 b1bc cd5f 773d c10c 893d
000000d0: 2f6d f03c 4dd8 b23d f7a9 89bc 4809 1b3b
000000e0: 11d5 de3c 45db 443c 1a23 b03b 67c3 84bc
000000f0: 7a28 943d c64a 27bc 4da8 863d 2c41 ba3c
00000100: a782 f63c 1b29 893d 9e6d 513d 2519 be3c
00000110: ff7c eb3c 6a95 613d 4a71 393d 0edb b73c
00000120: f6b8 743b 3b53 723d 94ad f53b ba42 2c3d
00000130: ed08 b8bc 9bc0 093d 6ae7 313d 1b01 833c
00000140: 38d9 fe3b b823 513d e7f2 d23c 461a 9b3c
00000150: ab1f c93c 9a8b 2f3d d8e9 b9bc 8898 9cbc
00000160: 9311 01bd df3a 05bd f011 a03d 455b cabc
00000170: ca92 02bd acec 4c3d ab4f 713c c9a4 603d
00000180: 6f2a 973a 037b 4b3d 3825 a33d 92a2 143d
00000190: 805a ec3b 9ba7 03bb bf60 af3d 1a8d 19bd
000001a0: c5ab 303d fc04 833c 10da b1ba 712d e5bc
000001b0: bef5 5dbd ae9e 8d3d 2933 3d3c e0f5 a13b
000001c0: 063d 323a 65be ae3d 6d3a d2bc 9191 be3c
000001d0: 0018 49bd e0bc 033a ab74 5dbb 6e76 43bd
000001e0: 798d dcbc b807 01bd 55df 443d b6cd 823d
000001f0: ab4a 483d 6e8e 583d 5d9a b2bc 6007 a63d
00000200: 3754 9abc d84c 05bd a7a1 8a3d 64bc 70bb
00000210: b6b1 363c d45b e33b e136 b93d cf8a 6c3d
00000220: 278f d7bc 82a2 8d3d 8e64 46bd ae94 5f3d
00000230: 697a 073d 014e 03bd 8dbb 5abd fe81 023d
00000240: 3fc9 5d3d 1138 08bd 7e36 273d 6f9d 2fbb
00000250: b29c c4bc cb4a 993d 324e bf3c 5958 913c
00000260: c5ab 533d 0949 723d 1d27 893c e7dd 8a3d
00000270: 24f9 b5bb ee62 9e3d 0fa6 32bd b538 123d
00000280: 47df 983d c786 a03d 311f 463d befc 763d
00000290: 7211 2cbc c3ca 74bb 5c9a 6d3d 65c6 13bd
000002a0: af7d 453d 60b6 2e3d aee2 313d 0bc6 3d3d
000002b0: b8ed 37bc 9f2a a73d 8d7d 4ebc 9485 b83c
000002c0: b49b 103d cbf9 0c3d 043a 613c eeb6 8f3d
000002d0: b25c 283d de22 24bd 0ef1 22bd 528d 62bb
000002e0: 992b 2a3d cb18 643d 358c 793d 0388 c13b
000002f0: 2f33 12bd 26e4 8f3d 37a5 a8bc b7ce 963d
00000300: f0d8 00b9 70ab 05bd 3d01 003d 0859 993d
00000310: 2ed8 693c a1fc 0dbd b493 193d 2e80 de3b
00000320: 504a e0bc b51c 123c 17fa 493d 51db 7a3d
00000330: 499f 15bd 7c8b 923b 2974 57bd 74dd fcbc
00000340: 432e 9e3d 8e69 183d 33a2 98bc 4aa3 933d
00000350: f0ab 6c3d f256 0abd 2a9e 763c 3b2c 713d
00000360: c5fb 8e3d 4bdf c3bc 91bd c73c cfef 64bc
00000370: 2200 b63d 36d8 533d 7578 853d 0863 4d3b
00000380: 15e8 0ebc aafe 103d c14b a83d 63bb b13d
00000390: 9620 b8bc 9917 fd3a 3c75 00bd 2e92 89bc
000003a0: d238 8b3d 047f cdbc fad8 15bd 6605 2f3d
000003b0: 7d35 913c bc8e d73c 26e3 b13d da29 7c3c
000003c0: bf6d 973c e2f4 3b3d 51e1 543d d4ef 1c3d
000003d0: de61 0fbc 46bb 3ebb 807d ac3d 209d 163d
000003e0: ff62 783d 160e 333d 3da9 e8bb 1d12 843d
000003f0: 48a4 763d 5b6a c8bc 8d53 993d fe9e 2dbd
0.04518475 0.0077945893 0.037152898 0.07130191 -0.032504402 -0.026873633 -0.0010383604 0.0655155
-0.0032295382 0.020163588 -0.006837323 0.071393065 0.017545322 0.084104225 0.05512879 0.03332161
-0.03920715 0.051399518 0.001425219 0.07622392 -0.03325755 0.050805796 0.013033642 -0.022190306
-0.018709091 0.08487987 0.04130304 0.0389447 -0.040803824 0.029040897 0.010636869 0.03284239
0.02278734 0.076531634 -0.034442045 0.067906655 -0.0016192064 -0.032587487 0.044376537 0.03913388
-0.022689534 -0.03906671 -0.03833625 0.029854324 0.073825985 0.067864306 -0.018853026 0.032645088
0.0077294363 -0.021640396 0.060394097 0.06691886 0.029348938 0.08732662 -0.016804678 0.0023656655
0.027201207 0.012015169 0.005375278 -0.016206456 0.07234283 -0.0102106985 0.065750696 0.022736154
0.030091597 0.06697293 0.05112993 0.02320535 0.028746126 0.055074133 0.045274056 0.02244332
0.003734169 0.059161406 0.0074974988 0.042055823 -0.022465194 0.03363095 0.043433584 0.015991738
0.0077773593 0.051059455 0.02575059 0.018933427 0.024551233 0.042857744 -0.022694513 -0.019115701
-0.0315109 -0.032526847 0.07815921 -0.024701724 -0.03187827 0.050030395 0.014728467 0.05484465
0.0011533032 0.04967786 0.07966083 0.03628785 0.007212937 -0.0020088914 0.08563375 -0.03748808
0.043132562 0.015993588 -0.0013569016 -0.02797577 -0.054189436 0.069150314 0.011547842 0.0049426407
0.00067992543 0.085324086 -0.025662625 0.02326277 -0.049095154 0.0005025398 -0.0033791463 -0.047720365
-0.026922928 -0.0315015 0.04806455 0.063868925 0.048899334 0.052870207 -0.021802122 0.081068754
-0.018838985 -0.032543987 0.06769114 -0.0036733383 0.011150768 0.006938437 0.090436704 0.057749566
-0.026313378 0.069157615 -0.04843574 0.05458515 0.033075724 -0.032056812 -0.05340152 0.03186225
0.054147 -0.033256594 0.040823452 -0.0026796719 -0.0240005 0.07484969 0.023352716 0.017742323
0.051677484 0.059151683 0.016742283 0.06780606 -0.0055533815 0.07733713 -0.043615397 0.03569861
0.07464462 0.07838207 0.04836959 0.060299627 -0.010502206 -0.00373523 0.058008537 -0.036077876
0.048215564 0.042654395 0.04342907 0.046331447 -0.01122611 0.08162426 -0.012603176 0.022524633
0.03530474 0.03441791 0.013746742 0.07017313 0.041104026 -0.040072314 -0.03978067 -0.0034569097
0.041545484 0.055687707 0.060924727 0.0059061064 -0.035693344 0.07025938 -0.020586593 0.073636465
-0.00012287847 -0.0326342 0.03125118 0.074876845 0.014272733 -0.034664754 0.037494376 0.0067901826
-0.027379185 0.008917977 0.04931077 0.061244313 -0.03652886 0.0044721942 -0.052601013 -0.030867316
0.077236675 0.03721004 -0.01863203 0.07208879 0.05778116 -0.033774324 0.015052358 0.058880072
0.06981615 -0.023910185 0.024382384 -0.01397319 0.08886744 0.051719867 0.06517116 0.0031339545
-0.008722325 0.035399117 0.08217574 0.08678319 -0.022476476 0.0019309401 -0.031361803 -0.016793337
0.06797947 -0.02508498 -0.036583878 0.042729758 0.0177257 0.026313178 0.08685903 0.015390838
0.018484948 0.045887835 0.05197269 0.038314655 -0.008751361 -0.0029103323 0.08422375 0.03677094
0.060641285 0.043714605 -0.007100253 0.06448767 0.060215265 -0.024464777 0.07486639 -0.042387955

fc2.bias f4 [128]
00000000: 0a05 8b3c 415b 383c 8f75 2bbd 4065 803d
00000010: b9e4 1abd 6a8f fa3c e46c ac3c be17 3ebd
00000020: 35b7 00bd ab9e 173d c14a 103d 4052 f4bc
00000030: 4603 2ebc 0094 d9bc cfb2 ce3b 757e a4bb
00000040: 1867 44bd ecef 58ba 7577 193d c5a2 a4bc
00000050: 1e6b 50bd d78d 7f3d f62b 0c3d 01f0 9a3c
00000060: 3567 273d 8ff7 023d 2e45 733c 8f4d c3bb
00000070: a140 a1bc 0d24 1f3d ec7d 84bc 988c 293d
00000080: 1429 eebc 96db ca3b f558 afbc 667d cb3c
00000090: a83c 49bd 5bab 74bd 3cfa 24bd c8c2 ccbc
000000a0: 9d78 aa3d 1bab 6abd 412e 133d ceeb c33d
000000b0: c6e5 293d 5187 e7bc 96d9 513d 0bf4 54bc
000000c0: 5fc5 a0bc 6d11 9a3b 7814 8eba 1db1 bfbc
000000d0: a531 da3c 09ee 8c3d 60a0 b63c dd3d c3bc
000000e0: 0b56 823d c41a 963a 2336 2c3d 2e66 c0bc
000000f0: 1f4b 8d3d b110 63bd 0d9c b83d b6e5 bf3b
00000100: 5599 6a3d fc89 29bd a454 503d 847d 65bb
00000110: 3975 85bb b907 523d 1f4f 253c e4a1 833d
00000120: 0499 553d c1c5 563d 7213 9b3d 0f5c 463d
00000130: 0bb8 463d fc08 8d3d e9f8 863d e86f 083d
00000140: eea9 583d 0b22 cd3b 31a2 2cbc ebf5 84bc
00000150: b0d9 323c 6354 95bc d013 8ebc e0f9 e7bc
00000160: f08f 953d 3b34 70bc 76be 3c3c 8024 1e3c
00000170: 1659 813d e568 6a3d c946 f4bc 1345 1e3c
00000180: d49f 8e3c 2771 f13c b834 b53c f160 193d
00000190: 1876 30bd a9e2 913c fd20 69bb b92a 983d
000001a0: 8a27 8fbc b1b2 0abd 6044 c13a 12bb 1fbd
000001b0: 12ec 203d a134 103d d502 9b3d cee3 363d
000001c0: 971c 08bd 1f67 983c 84eb ccbc 1018 cd3c
000001d0: 6d30 983c be53 65bd fb52 30bd d9a4 18bd
000001e0: c188 4b3d 389e 12bd 13ac 273c 7785 a13c
000001f0: c1d3 a83d 405a 92bb 7aa7 8a3d 7206 97bc
0.016970176 0.011252225 -0.04186016 0.06269312 -0.037815783 0.030585963 0.021048017 -0.04640936
-0.03142472 0.037016552 0.03522754 -0.029824376 -0.010620898 -0.02655983 0.0063079367 -0.0050199577
-0.04794988 -0.0008275497 0.03746744 -0.020097146 -0.050883405 0.06239113 0.034221612 0.01891327
0.04086991 0.03197437 0.014848037 -0.0059601734 -0.019684138 0.03885274 -0.016173325 0.041393846
-0.029072322 0.0061907275 -0.021404723 0.024840068 -0.049130112 -0.05973373 -0.040277705 -0.024995223
0.083237864 -0.057292085 0.035932783 0.095664605 0.041478895 -0.028262766 0.051232897 -0.0129976375
-0.019625364 0.0047017843 -0.001083984 -0.023399884 0.026635 0.06881339 0.02229327 -0.02383321
0.06364068 0.0011452069 0.042043816 -0.023486223 0.06899094 -0.05543584 0.09014139 0.005856241
0.057275135 -0.041391358 0.05086197 -0.003501744 -0.004072812 0.051276896 0.010089665 0.064273626
0.05214788 0.052434687 0.07572068 0.048427638 0.04851536 0.06886479 0.065904446 0.033309847
0.052896433 0.0062601618 -0.010536716 -0.016230544 0.010916159 -0.018228715 -0.017343432 -0.028317392
0.073028445 -0.01466089 0.011520019 0.009652257 0.0631582 0.05722894 -0.02981891 0.009660023
0.017410196 0.0294729 0.022119865 0.037445966 -0.043081373 0.017808275 -0.003557264 0.07430024
-0.017474908 -0.03386182 0.0014745109 -0.038996764 0.039287634 0.03520644 0.075688995 0.044650845
-0.03323039 0.01860386 -0.025014646 0.025035888 0.018577779 -0.055988066 -0.043047886 -0.037266586
0.049690966 -0.03579542 0.010233897 0.019716961 0.08243514 -0.004466325 0.06770225 -0.01843569

fc3.weight f4 [64, 128]
00000000: db83 31bd 9953 eebb b13c 77bd 3536 c63d
00000010: aa4d 66bd 4256 b6bd 8980 713d 2795 3b3d
00000020: d2a8 523d 91c5 1bbc 909c 9abd 0c3d 263d
00000030: 5d84 52bd 958e 9a3d 3e2b d2bc 8f35 03bd
00000040: ff57 223d 64a9 7cbd 207d 323d 7221 003d
00000050: c402 3c3d 7dda 123d e0cb 7bbd 8e81 7e3c
00000060: cc08 62bd 2af6 60bb 94ca 86bd 808e 943c
00000070: bba4 0ebd f4ee 0b3d d6ae 933c 8abf 793c
00000080: 7498 3a3c 03b6 31bd 4fb2 9d3d 17ba 2c3d
00000090: 55fe 1d3d cd53 b2bc 19ca 5a3d 5e7f 54bd
000000a0: 52fe afbd 6ddf 4d3b cff8 88bd ca6d abbd
000000b0: fd27 73bd 388c ab3d ca18 2e3d 0c9f 263d
000000c0: 2145 1b3c 7864 273c f916 09bd 9283 d73b
000000d0: 0d29 57bc 0e7b 8ebd e697 683d ac93 d139
000000e0: 1482 85bd df34 303d 344d 61bc 1ab6 c13c
000000f0: e751 1abd 92c4 74bd d8b4 aa3d f6c0 97bd
00000100: 5308 8b3d 7d9e 903c 8010 4d3d 19bd a7bd
00000110: 8a5e f13c 4a12 15bd 7e66 5f3d 3864 1dbd
00000120: 1ab0 4cbd f2fa f3bc a9cb 5fbd 9b94 97bc
00000130: e082 bc3a 7d5a b7ba c889 d5bc 407c 62bd
00000140: e022 a43d 0af1 b0bd 5275 79bd 16f0 b2bb
00000150: 7580 123d 4096 303d b3cf db3c e597 413d
00000160: 7436 86bd af27 6e3d 80f4 0f3d 3918 bcbb
00000170: 496e d03b f315 0c3d 77ab e7bc 4ef6 843b
00000180: d19c 8cbd 7a8b 84bd ce9b 92bd 197f 8bbd
00000190: 855f 8f3d b497 993c 5b00 453d e8ab b1bd
000001a0: 4975 8a3d 14d2 a0bb f0b1 3fbd 8dd4 b4bd
000001b0: 10b6 f13b 8eb3 203c c49f 9a3d 4953 cb3c
000001c0: e5b2 63bc 985c 953c de75 c43c 2ca6 5ebd
000001d0: b1bb 9c3d a2c3 babc 72b7 2a3d 68e9 cbbc
000001e0: 0cb2 9f3d 9efd 92bc 2858 5dbb bab1 2abd
000001f0: f090 8d3d e9c5 4c3d 6963 71bd b593 44bd
00000200: 09ab a93d c007 50bd 32fc 08bd 7d81 21bd
00000210: 1e3a 983d da1c cdbc bfbc 8abd 8af9 84bc
00000220: 5a3b 7e3d 943f 81bd d836 a1bd 6e49 9abc
00000230: 5144 4b3c a59f 3bbd 68a7 4ebc e282 50bd
00000240: cced c93d e67e 83bc 1141 f5bc a34c 9f3d
00000250: 5dea 163d f986 f8bc 8aa4 8ebb d56b 9c3d
00000260: 1a2a 12bd 9e23 d73d d994 b83c 9c8c 4a3d
00000270: f973 1abd bf00 6ebb 4677 6dbd 8287 7b3b
00000280: d567 773c bf7b 86bd 9739 bbbc 4c3e 893d
00000290: b871 f53c 99dd bcbd d826 68ba 5d0f 29ba
000002a0: 0508 4fbd 0f19 cd3c 4fe7 de3d ac2b e13d
000002b0: c136 353c d0b2 56bd ab32 e83c f71e 84bd
000002c0: ce7d 05bb 8d0f 5d3d 7552 46bd 814d c93d
000002d0: 5f80 1f3d 88dc 86bd ecf4 533d 5741 aa3d
000002e0: 6fa4 5f3d 20bb a23d 79fb fd3d 624c 83ba
000002f0: 0494 ea3d 4d3a 953d 059f dbbb 008f de3d
00000300: 10c2 9a3c 0900 43bc 97e4 b6bc 85c8 9d3c
00000310: fa6b d83d c7f9 793c bde1 3f3d 6469 a53d
00000320: 3a85 b73d 03f2 6e3d 6b15 583d c47a 85bd
00000330: 6fd1 0c3d f646 30bd 7fd1 2d3d 2804 883b
00000340: 4629 b33b d9d9 733d 3b21 9e3d 26c2 6ebd
00000350: f171 503c be13 b7bc 851a 04bd 529f 48bd
00000360: 787d ee3c 865a c7bc 4ab3 a23c aa91 183c
00000370: bd35 d93d da91 0f3c 878c 8b3c 3c8c 53bd
00000380: 2c75 bf3d 8c71 a9bc 7a0c a9bd d380 0f3d
00000390: 7fe2 e9bb 08a4 e43c 9cfb 7a3d 76b9 51bc
000003a0: 3bcb 043d 1937 613d 3b54 5d3d 749d 86bc
000003b0: 1a97 8c3d a0a4 ac3d bd8c 383d 644f b13d
000003c0: 2af1 963d 8c78 853d fc63 833d 7c4e f23d
000003d0: 8c5c 8abd ba6a b23d be9e 6e3d adf8 753a
000003e0: 68bc 84bd f843 b93d 79b1 4bbd d617 1fbc
000003f0: b332 5b3d 3216 433c 037f 293c 9169 22bd
-0.043338638 -0.007273149 -0.060360614 0.09678308 -0.05622641 -0.08903171 0.05896047 0.04579654
0.05143053 -0.009507553 -0.07549393 0.040585563 -0.051395763 0.075467266 -0.025655385 -0.0320335
0.0396347 -0.06168498 0.04357636 0.031281896 0.045901075 0.035852898 -0.061473727 0.015533818
-0.05518417 -0.0034326413 -0.065816075 0.018134356 -0.034825068 0.03416343 0.018027704 0.01524342
0.011388887 -0.04338647 0.07700025 0.042169657 0.038572628 -0.021768475 0.05341539 -0.05187928
-0.085934296 0.003141369 -0.066880815 -0.0837055 -0.059364308 0.08376354 0.04250411 0.040679023
0.009476931 0.010216825 -0.033469174 0.0065769637 -0.013132346 -0.069570646 0.056785487 0.0003997361
-0.06518951 0.04301917 -0.013751317 0.023646403 -0.037675764 -0.059757777 0.083352745 -0.07409851
0.06788697 0.017653698 0.050064564 -0.081903644 0.029464025 -0.036394395 0.054541104 -0.038425654
-0.04997263 -0.029782746 -0.054637585 -0.018503478 0.0014382266 -0.001398876 -0.026066676 -0.055294275
0.080144644 -0.086397246 -0.0609029 -0.0054607494 0.035767037 0.04311204 0.026832437 0.047264
-0.06553355 0.058143314 0.035145283 -0.0057401923 0.0063608033 0.03420062 -0.028280003 0.004057682
-0.06865848 -0.064719155 -0.07158624 -0.06811351 0.07000641 0.018749095 0.048096042 -0.08675367
0.067606516 -0.0049078558 -0.046800554 -0.08829603 0.00737644 0.009808434 0.07550004 0.024819987
-0.013897632 0.018232629 0.023981985 -0.054357693 0.07652987 -0.022798363 0.041678853 -0.02489157
0.077976316 -0.0179432 -0.003377447 -0.0416734 0.0691241 0.04999343 -0.058932696 -0.047992427
0.082845755 -0.05078864 -0.033443637 -0.03943013 0.0743296 -0.025038172 -0.06774282 -0.01623227
0.06206832 -0.06310955 -0.07871789 -0.018833842 0.012406425 -0.045806546 -0.012613155 -0.05090607
0.09859809 -0.01605172 -0.029938253 0.07778289 0.0368446 -0.030337797 -0.0043531107 0.07637755
-0.035684682 0.1050484 0.022531914 0.0494505 -0.037708256 -0.0036316363 -0.057975076 0.003838033
0.015100439 -0.065665714 -0.02285461 0.06701335 0.029961452 -0.09221954 -0.0008855886 -0.00064491277
-0.050544757 0.025036363 0.10883962 0.10994658 0.011060418 -0.052416623 0.028344473 -0.064512186
-0.0020369175 0.05396991 -0.04841848 0.09829236 0.038940784 -0.06585032 0.051747248 0.08313244
0.054600175 0.079458475 0.1240148 -0.0010017271 0.11454013 0.072865106 -0.006702306 0.10867119
0.018891364 -0.011901864 -0.022325797 0.019260654 0.1056747 0.015257305 0.04684614 0.08076742
0.08960958 0.05833627 0.0527548 -0.06517556 0.03437942 -0.043036424 0.04243612 0.004150886
0.0054675667 0.059533928 0.07721182 -0.058290623 0.012722478 -0.022348281 -0.032251853 -0.048980065
0.029112563 -0.024335157 0.019860882 0.009312073 0.10605953 0.008762801 0.017034782 -0.05164741
0.09348521 -0.020684026 -0.08254333 0.035034966 -0.007137596 0.027910247 0.06127511 -0.012800565
0.03242038 0.054984186 0.054035407 -0.016432501 0.06864758 0.08429837 0.045056093 0.08657721
0.07370217 0.06517133 0.06415555 0.11831376 -0.06755933 0.08711763 0.058256857 0.0009383064
-0.06481248 0.09046167 -0.049729798 -0.009710273 0.053515147 0.011907147 0.010345223 -0.039651457

fc3.bias f4 [64]
00000000: 8e03 a43d eafc 0dbd 80c4 e639 4c86 ee3d
00000010: d767 f1bc ac47 5b3d a57c b4bc 50b4 1a3d
00000020: 56fa d4bb ad89 87bd 646c 3e3d cd09 afbd
00000030: 2441 4bbd 797c d2bc f58f cc3d 1adb 1abd
00000040: 71fb 6fbd 81c3 8abd 913d b7bc eadb bcbc
00000050: 72d9 153d 5338 1bbd 78fc 7a3d eb7e 29bd
00000060: 96de 68bd a949 fc3d e926 9b3d eb6e 583d
00000070: 42bc 633d 56c6 ac3a a630 323c 4908 043d
00000080: 4dcf 31bd 841a a03c 0382 043d cf4b 6ebd
00000090: ab18 903c 50b1 a33c ce31 aabd 6c27 f23c
000000a0: 24b0 a9bc c40e 83bd b197 c9bd 6449 463b
000000b0: 9954 343b 9fe5 a53c ad66 99bd 667e 9b3c
000000c0: 9aa1 3f3c a16b 813d 9686 9e3d 2ae2 3e3d
000000d0: 86a3 74bc 89ed 9c3d 1cc7 3dbc 1823 3f3d
000000e0: 9891 aa3d 516c 7b3d f3d9 ee3a d853 613d
000000f0: 6767 c33d 8d7e 803d 0fd1 c03c c31d 3dbd
0.080084905 -0.034665026 0.00044015422 0.11646709 -0.02946846 0.05353515 -0.022032091 0.037769616
-0.006499569 -0.066180564 0.046490088 -0.08546791 -0.04962267 -0.025694119 0.09988395 -0.037806608
-0.058589403 -0.06775571 -0.022368224 -0.023054082 0.036584325 -0.03789551 0.06127593 -0.041380804
-0.0568529 0.12318737 0.07575781 0.052840155 0.05559946 0.0013181667 0.0108758565 0.032234464
-0.043410588 0.019543894 0.03235055 -0.058177765 0.017589888 0.01998201 -0.08310281 0.029559813
-0.020713873 -0.06399301 -0.09843386 0.0030256147 0.0027516244 0.020251093 -0.07490287 0.01898117
0.011696244 0.06319357 0.07740514 0.046602406 -0.014931565 0.07662494 -0.011583116 0.046664327
0.08328551 0.061382595 0.0018222913 0.0550116 0.09541207 0.06274138 0.023537187 -0.04617096

fc4.weight f4 [32, 64]
00000000: 8a1d cd3d c2eb be3a 207e 36bb 795c 24bd
00000010: a4c2 b73d 89b2 463a 665a a93d ddcc aa3d
00000020: 3937 493c 1407 a1bd 4b37 80bd ebb6 203d
00000030: e7b3 9bbd e6a0 84bd 255e debb 4aaa b63d
00000040: cdf4 d43c e8ec 3c3d 5d5a ff3c c1e0 173e
00000050: eda9 6fbd e1a7 88bc f342 f4bd 921d 4ebd
00000060: 3857 b73b 9e20 0a3e c006 083e 3f46 0b3e
00000070: bb9d 24bd ea67 d43d 9bbd ce3d 0f7d bf3d
00000080: 7575 f13d 7b77 cbbd fc37 073d 9280 893d
00000090: 2a08 eabd c54b 8d3d a9e4 0abb 9844 c0bc
000000a0: a8ec d7bd 49a2 2fbb 4d4e 6f3d 9da5 033e
000000b0: 205c c93c ee42 ab3c 2db4 863d 8fa9 d63d
000000c0: c176 023e 5426 333c 1f51 9dbd 1469 0b3e
000000d0: 80f5 e7bd dce5 97bd 2ea7 0d3e f251 353d
000000e0: 4e98 3dbd fc8f a5bb 54e8 cfbd d92f 78bd
000000f0: 582b 3cbd b5e6 73bd 9aeb a1bd ef47 9a3d
00000100: 16fe dd3d 4ec8 e23d e29f 0ebb 0f9f f63a
00000110: 1b04 883c 60d6 a0bb 325d 543d 3230 c83d
00000120: 17ee 843d 829b 26bd 52e7 87bd 8eb2 d83d
00000130: b0ef 2e3c 1426 04bd 70e0 00be 3c69 65bd
00000140: ecf1 ebbd 500f 23bd b0da 8ebc 2d65 7cbc
00000150: 8f57 bfbd 1cee 8cbd 3811 743d d819 e3bd
00000160: 1231 d8bd 336c d7bd 6842 a6bd fb2f 233d
00000170: 1f0d 113c 002d d7ba 4d6b 17bd 6856 e63d
00000180: 74ca 93bd 27fa a7bc b872 50bd 187c b83c
00000190: 9cd1 2fbd 9984 9e3d b95e 2fbc 165b 5f3d
000001a0: 6c81 e9bd 2b25 fc3c 9492 e73d 287c 9e3d
000001b0: 0c04 b8bd 0b8d 84ba 0f44 003c bba7 2a3d
000001c0: 612c d5bd ca55 d3bd d08d 163d bca0 78bd
000001d0: c87d c03c badd 963c 5416 d33d 5e1b 743d
000001e0: 30e9 53bd e018 c8bb a3a9 e83c 9813 733d
000001f0: 5ed1 9d3d e28d c7bd 0721 933d f909 b1bd
00000200: 51fe 0abe 3a7f 1a3d 6007 7dbd 8a6e 5e3d
00000210: fe5b a3bd a2fc 60bc cdd4 e4bd af98 c1bd
00000220: ae39 013d 26d8 563d a311 b93d 1530 6fbc
00000230: a9b0 1d3e 91dd 87bd 7a59 233d f7fb c0bd
00000240: cd36 0bbd 3ebe b03b 2520 583b be66 57bd
00000250: 5779 e3ba 035e 2ebc ab5b aebd 0da9 ee3d
00000260: e707 723d 54f7 673d 6d70 12bd 208b e83c
00000270: 82c5 9d3d f413 ae3c c33b e53b e705 08bd
00000280: 4ab2 a0bd 9227 db3d 0d6f 583c 3df4 ffbd
00000290: 7465 d33c db58 41bd b192 d23d 4540 b93d
000002a0: 3034 5ebd 85ae 063d 29e3 4dbd edb6 e1bd
000002b0: b83d f43d a3ff 9f3c 6800 2bbd ccfd c4b9
000002c0: a6fa c5bd 5ea8 7f3d b8a3 973d 06c1 1abd
000002d0: be6b cebd 9420 6f3d 13e2 0abd 4180 6c3d
000002e0: 9464 073d d47b d1ba d62e b2bd 8fb4 8e3d
000002f0: f9af d4bd 2ac0 043e 019b f4bd 7d08 c43d
00000300: 84d3 e83d 602a 56bc 6d46 813d 7c37 d83d
00000310: e564 e53b 294c ed3d 089b 90bd 5e2c a9bd
00000320: 6b11 fcbd fa1b b6bc 069c 513d 835d 92bd
00000330: 8b7d 38bd 478b 40bd cc5b b8bd 8506 4d3d
00000340: 6a52 803d 2d37 313d c700 31bd b0ce 883d
00000350: 2d34 8ebd 67bf d13d 5ed5 69bd 0f4b 9ebd
00000360: d097 c93b 85ba 5e3d 9b44 553d 24b0 423d
00000370: add4 0dbd 71e3 f7bd 0f0d 2cbd 4986 103e
00000380: 76c1 31bd a654 e33d cc14 d63b a7ea ecbd
00000390: ad98 cabd 9711 f63d a524 413d ed7e b7bb
000003a0: f23e e7bd ddea 873d fb4d f33d ed6b 86bd
000003b0: e65c 7dbd fe34 8b3c b8d3 df3d 7ba9 ddbd
000003c0: e6b3 40bc f3cb 00be 7d43 6e3c 9357 113e
000003d0: 44dc ba3b 7ee6 ecbd 9c95 cabd 6a00 f43d
000003e0: 40ce 093e 137d 9e3d d15a d9ba bfde 083e
000003f0: 5944 983d d285 6bbd 9b9b 033e ee73 423d
0.100154 0.0014566111 -0.0027846172 -0.04012725 0.08972672 0.00075797044 0.08269195 0.08339856
0.0122812325 -0.07862678 -0.06260546 0.039236944 -0.07602673 -0.064760014 -0.0067861252 0.08919199
0.025995636 0.04612437 0.031171018 0.1483183 -0.058511663 -0.016681613 -0.11926832 -0.05032117
0.005595114 0.13489005 0.13283825 0.13601016 -0.040189486 0.103713825 0.10094758 0.09350025
0.11789981 -0.099348985 0.033012375 0.06713976 -0.114273384 0.068992175 -0.002119342 -0.023470208
-0.105431855 -0.002679961 0.058424283 0.12856145 0.024580061 0.020905938 0.065773346 0.104815595
0.12740614 0.010934431 -0.07681488 0.13614303 -0.11326122 -0.07416889 0.13833305 0.044267602
-0.046287827 -0.0050525647 -0.10151735 -0.060592506 -0.045939773 -0.05954619 -0.079062656 0.075332515
0.10839479 0.11073361 -0.0021762778 0.0018815714 0.01660352 -0.004908368 0.05184669 0.097748175
0.064907245 -0.040675648 -0.06635918 0.105809316 0.010677263 -0.032262877 -0.12585616 -0.056008562
-0.11520752 -0.039809525 -0.017438263 -0.015404982 -0.09342872 -0.06881353 0.059586734 -0.11088914
-0.105562344 -0.10518684 -0.08118135 0.03984068 0.008853226 -0.0016416609 -0.036967564 0.112469494
-0.07216349 -0.020505024 -0.050890654 0.02252011 -0.04292451 0.07740135 -0.010703736 0.054530226
-0.114016384 0.030779442 0.113072544 0.07738525 -0.08985147 -0.0010112835 0.007828726 0.041663866
-0.10408855 -0.10319097 0.036756337 -0.060700163 0.023497477 0.018416274 0.10306993 0.059596412
-0.051736057 -0.006106481 0.028401202 0.059344858 0.07705949 -0.09743859 0.07184034 -0.0864448
-0.13573577 0.03771899 -0.06177461 0.054304637 -0.079765305 -0.013732107 -0.11173401 -0.0945295
0.03154915 0.05245223 0.09036567 -0.014598866 0.15399422 -0.06634057 0.039880253 -0.094230585
-0.03398781 0.0053937724 0.0032978144 -0.052588217 -0.0017354888 -0.010642531 -0.08513578 0.11653338
0.059089568 0.056632355 -0.03575175 0.028386652 0.07703687 0.021249749 0.0069956495 -0.033208754
-0.07846506 0.10700907 0.01321007 -0.12497757 0.025805213 -0.04720388 0.102818854 0.090454616
-0.05424899 0.03288128 -0.050265465 -0.110212184 0.119258344 0.019531077 -0.041748434 -0.00037573127
-0.09666948 0.062416427 0.07404274 -0.037781738 -0.10079144 0.05838068 -0.033907007 0.0577395
0.033054903 -0.0015982338 -0.087003395 0.069680326 -0.103851266 0.1296393 -0.11943627 0.095719315
0.113684684 -0.013071626 0.06312261 0.10557458 0.007000553 0.11586792 -0.0706082 -0.082604155
-0.1230801 -0.022230137 0.051174186 -0.07146742 -0.045041602 -0.047007825 -0.09001884 0.050055046
0.06265719 0.04326551 -0.043213632 0.066800475 -0.069435455 0.10241585 -0.05708825 -0.0772916
0.0061521307 0.054377098 0.05206738 0.047531262 -0.03462665 -0.12103928 -0.04200464 0.14113726
-0.04339739 0.1110013 0.006533241 -0.11568194 -0.09892402 0.12015074 0.047154088 -0.0055998475
-0.11291303 0.066365935 0.11880108 -0.06563554 -0.061856173 0.016993042 0.10929054 -0.108233415
-0.011761641 -0.125778 0.014542458 0.14193563 0.0057025272 -0.115674004 -0.09891817 0.119141415
0.13457584 0.077387 -0.0016582852 0.13366221 0.07434911 -0.057500668 0.12852328 0.04747384

fc4.bias f4 [32]
00000000: 0528 80bc a851 fdbd 912e 7ebc 6210 d53c
00000010: 9017 843c ebee 3d3d 4979 7a3c 879c 69bb
00000020: a81b f9bd d75e 18bd d862 5bbd 42a0 38bb
00000030: a82e ebbd 1c40 d0bd eb4b aa3c f5d0 b33d
00000040: e049 5abd e7bd 43bd 27bd df3d abbb 67bd
00000050: 90c2 80bd a028 c3bc f414 fdbd 4fcb 683c
00000060: 64e7 0a3d 90fd a53d e825 d43d 06c4 9f3c
00000070: e9c4 0abe 3647 f93d cf11 903d 8ed2 d1bc
-0.015644083 -0.1236909 -0.015514032 0.026008788 0.016124517 0.046370428 0.015287706 -0.0035646276
-0.12163478 -0.03719982 -0.05356106 -0.0028171693 -0.11483508 -0.10168478 0.020788154 0.0878009
-0.05329311 -0.047788527 0.1092475 -0.05657546 -0.0628711 -0.023823082 -0.12357512 0.014208629
0.033912078 0.08105004 0.103587925 0.019502651 -0.13551678 0.121717855 0.07034647 -0.025613096

fc5.weight f4 [3, 32]
00000000: 1b73 bdbd 71e3 35be 0de2 a6bd 5446 b3bd
00000010: a04f 003e f04f 183e ed40 19bd 5ea0 433d
00000020: 1e6d edbd bdfb b43d ee95 f6bd b407 1dbd
00000030: 49bb 8a3d b3bc f2bd 8af1 e7bd 3f18 b43d
00000040: 8464 ecbd 5a21 463e 9101 fcbd 1170 c7bd
00000050: 59d2 ecbd 0b8a d73d 5980 453e 2da6 4e3d
00000060: 3b8d 3c3e 5958 bd3d a5d2 e73d c59d 2abd
00000070: d417 a5bd 31fa 47be 0f70 0a3e c98c b03c
00000080: b86c 6c3d de77 663c 53ea 4dbe f4ea a83d
00000090: 3698 033b a345 9dbd 5548 25be 6097 4ebb
000000a0: 4314 073d d852 e0bc 0452 683d 7521 ecbc
000000b0: 3de8 17bd 18cb 20be 5454 033d ed18 a43c
000000c0: 925c 27be bfab 173e 76e5 1ebe ab06 683d
000000d0: f0d7 fa3d 2e5e 0b3d 182c 49be f917 28bd
000000e0: 98e9 27be a36e 273e eadc 483e d95a 8f3d
000000f0: bb28 f83d ce25 8a3d 1e2a b43b 3b93 d83d
00000100: 787f 0f3e a420 e2bd 1c1b 23be 92e0 92bd
00000110: d08d 0dbe c85a be3d 9a7f 253e 145c 273e
00000120: df5b 473c bb41 25bd ae98 b2bd e712 003e
00000130: 72fb d03b 0c75 4e3c f5f6 d13d 2b3e 3fbe
00000140: 18e3 ce3d 29a2 993d 32f4 b5bd d7b6 093e
00000150: 8cf1 0dbe 5ce5 0dbe 6b63 febd 4dd9 3f3e
00000160: 5bb1 27bd b6db 5ebd 141e 273e 4e70 2fbd
00000170: a95e f73b 4147 f4bd 2f1f be3d 0bb7 a6bd
-0.0925047 -0.17762543 -0.081485845 -0.087536484 0.12530375 0.14874244 -0.037415434 0.04776036
-0.11593078 0.08837078 -0.120403156 -0.038337424 0.06774003 -0.11852398 -0.11325367 0.08793687
-0.11542609 0.1934866 -0.12304986 -0.09738172 -0.11563558 0.105243765 0.19287242 0.050451446
0.1841325 0.092453666 0.11319474 -0.041654367 -0.080611855 -0.19529034 0.1351931 0.021551507
0.05772087 0.0140666645 -0.20108919 0.08247939 0.0020079738 -0.07679298 -0.16140874 -0.0031523332
0.032978307 -0.027383253 0.05671884 -0.028824547 -0.037086714 -0.15702474 0.032062843 0.020031417
-0.16343907 0.1481161 -0.1551722 0.056646984 0.12248218 0.034025364 -0.19645727 -0.041038487
-0.16397703 0.16350798 0.19615522 0.0699975 0.12117144 0.06745492 0.005498185 0.10574957
0.14013469 -0.11041382 -0.1592831 -0.0717174 -0.13823628 0.09294659 0.16161957 0.16343719
0.0121679 -0.04034589 -0.087205276 0.1250721 0.006377631 0.012601148 0.102521814 -0.18676059
0.101019084 0.07501633 -0.08884467 0.13448654 -0.13861674 -0.13857025 -0.12421306 0.18735237
-0.040940624 -0.05440875 0.16320068 -0.04283171 0.007549126 -0.11927653 0.092832915 -0.081403814

fc5.bias f4 [3]
00000000: 323a f3bd 68d9 203d 427b afbd
-0.11876334 0.039269835 -0.085684314
